nlp/model.pth (torch, 3351 bytes, 6 tensors)

l1.weight f4 [8, 20]
0	0xbf11febe	-0.5702933
1	0x3ded3736	0.11582796
2	0x3e88d5ca	0.26725608
3	0x3ebf6d87	0.3738825
4	0x3ec68a73	0.38777503
5	0x3e59fb15	0.21287186
6	0x3e99baff	0.3002548
7	0x3ecbc0e4	0.397956
8	0xbe1fcc68	-0.15605319
9	0x3e8ef9b2	0.27924877
10	0xbdf69163	-0.12039449
11	0x3ec93120	0.39295292
12	0xbf4f8795	-0.81066257
13	0x3e348844	0.17630106
14	0x3ecd725a	0.40126306
15	0x3e9f5ffd	0.3112792
16	0x3ecbe4f0	0.39823103
17	0x3ed8d8c7	0.42352888
18	0x3f201ba3	0.6254217
19	0xbde81ebc	-0.11333987
20	0xbede13d2	-0.43374497
21	0x3f090b5a	0.53532946
22	0xbe26d975	-0.16293891
23	0x3d1aeef0	0.037825525
24	0x3edb1810	0.42791796
25	0x3e77ee23	0.24211936
26	0x3f19cfee	0.600829
27	0x3e528e8c	0.2056219
28	0xbe1b81db	-0.15186255
29	0x3d499262	0.049211867
30	0x3dec3a1b	0.1153452
31	0xbeadef61	-0.33971694
32	0xbe9052e2	-0.28188235
33	0xbe7ff308	-0.24995053
34	0x3f0771c2	0.52907956
35	0x3eb7f271	0.35927156
36	0x3e1f16df	0.15536068
37	0x3d86aa00	0.06575394
38	0xbeda3d08	-0.42624688
39	0xbe8a8ea8	-0.27061963
40	0x3f242ebe	0.6413382
41	0xbecf90a8	-0.4054005
42	0x3d694228	0.056947857
43	0x3e8c960f	0.27458236
44	0xbd8522e0	-0.065007925
45	0xbdfec397	-0.124396496
46	0xbe41dba1	-0.18931438
47	0xbe40bc19	-0.18821754
48	0xbec34225	-0.38136402
49	0x3ed3e09a	0.41382295
50	0x3f18f821	0.59753615
51	0x3f297dda	0.6620766
52	0x3f93c443	1.1544269
53	0x3e81236a	0.2522233
54	0xbec34d90	-0.38145113
55	0xbf243850	-0.64148426
56	0x3f3b02f7	0.730514
57	0x3f31f759	0.6951805
58	0x3e0a54c7	0.13508902
59	0x3f33657d	0.70076734
60	0x3f5d9265	0.86551505
61	0x3e52a8c2	0.20572188
62	0xbe2ddf1e	-0.16979644
63	0x3e1d889b	0.15384142
64	0x3e858cfe	0.2608413
65	0x3e8bdc29	0.27316406
66	0x3edc4a74	0.43025553
67	0x3ee1e0d0	0.4411683
68	0x3f2537cb	0.6453826
69	0xbe72855a	-0.23683682
70	0x3e1d2166	0.15344772
71	0xbf1d7323	-0.6150381
72	0x3f60c7d9	0.87804943
73	0xbe286bb9	-0.16447343
74	0x3ec2b0d5	0.38025537
75	0x3efa6898	0.48907924
76	0xbeb402b0	-0.351583
77	0xbeb4154c	-0.35172498
78	0xbe268ab1	-0.16263844
79	0x3e0434b3	0.12910728
80	0x3f422930	0.758441
81	0x3d7f5dab	0.062345188
82	0xbe2ac6ff	-0.16677473
83	0xbd37e430	-0.04489535
84	0x3e9d7261	0.30751327
85	0x3ecd5295	0.40102068
86	0x3ea47299	0.3211868
87	0x3eed5658	0.46354938
88	0x3f5ba29c	0.85795
89	0xbdf84826	-0.12123136
90	0x3eaac7a9	0.33355454
91	0xbee0978e	-0.43865627
92	0x3f391590	0.72298527
93	0xbe623e8e	-0.22094175
94	0x3dc5c5a3	0.09656837
95	0x3f212cb8	0.6295886
96	0xbeea7e55	-0.4579951
97	0xbf02d73d	-0.5110968
98	0xbd9bfbd5	-0.076163925
99	0xbe437333	-0.19086914
100	0xbf0e4da7	-0.5558724
101	0x3f050f4f	0.51976484
102	0x3e8abb00	0.27095795
103	0x3e4927ed	0.19644137
104	0x3e3b376f	0.18282865
105	0x3e782158	0.2423147
106	0x3eb2fa92	0.34956795
107	0x3ec1318a	0.37733108
108	0xbeefb2e7	-0.4681618
109	0x3e05a7cc	0.1305229
110	0x3d559a63	0.052149188
111	0x3f0838c0	0.53211594
112	0xbf2b091a	-0.6681076
113	0x3eddd431	0.43325952
114	0x3efeb28d	0.49745598
115	0xbddbd1ec	-0.10733399
116	0x3efbdba8	0.49191022
117	0x3ee04cc8	0.4380858
118	0x3efb43f0	0.4907527
119	0x3ec69380	0.3878441
120	0xbe1db9ec	-0.15402955
121	0xbcbc07a0	-0.022952855
122	0x3cf4ddaa	0.029890854
123	0x3e177d1c	0.14793819
124	0xbd97af56	-0.074064896
125	0xbdef9cab	-0.11699804
126	0xbd2b2ad0	-0.041788876
127	0x3b889214	0.0041678045
128	0x3c9c4b96	0.019079011
129	0xbc273098	-0.010204457
130	0xbe4c91d7	-0.19977508
131	0x3d48c7d3	0.049018692
132	0xbe4dedf0	-0.20110297
133	0xbdc980a2	-0.09838988
134	0x3db2d414	0.08731857
135	0xbdbbcda1	-0.0917008
136	0xbc117357	-0.008877597
137	0xbe23c8f8	-0.15994632
138	0xbdfbee51	-0.123013146
139	0xbd9e9c3e	-0.077446446
140	0xbec68aca	-0.38777763
141	0x3e8898df	0.2667913
142	0xbedd1ad9	-0.43184546
143	0xbe8b63fe	-0.27224725
144	0xbe59f00e	-0.2128298
145	0xbe645264	-0.22297055
146	0x3ec3fbcf	0.38278052
147	0x3f24a15f	0.6430873
148	0xbe19bca4	-0.15013367
149	0xbe11d2d1	-0.14240576
150	0x3cf86eca	0.030326266
151	0xbe99f165	-0.30066982
152	0xbe736ddd	-0.23772378
153	0xbc8c87f2	-0.017154668
154	0x3eb8f359	0.3612316
155	0x3edc4c2b	0.43026862
156	0x3dd996ad	0.10624442
157	0x3ca9ca02	0.020726208
158	0xbd7f102a	-0.062271275
159	0xbe651343	-0.22370629

l1.bias f4 [8]
0	0x3f120073	0.57031935
1	0x3ede14a9	0.43375137
2	0x3e41d689	0.18929495
3	0x3f2f2575	0.6841653
4	0x3f41073c	0.75401664
5	0x3ec2103b	0.37903008
6	0xbc477c65	-0.012175654
7	0x3ec687b6	0.38775414

l2.weight f4 [8, 8]
0	0x3f99441e	1.1973913
1	0x3f7a482a	0.97766364
2	0xbf1d0522	-0.6133596
3	0xbe7f3616	-0.24922976
4	0x3e627a32	0.22116926
5	0x3f69173d	0.91051084
6	0xbe7c246a	-0.24623266
7	0x3ece360a	0.40275604
8	0xbe535ce3	-0.20640902
9	0xbeb17e3e	-0.34666628
10	0x3de2b368	0.11069375
11	0xbe59c5aa	-0.21266809
12	0xbe9a6e81	-0.30162433
13	0x3d454eec	0.04817097
14	0xbe848f90	-0.2589078
15	0x3e47966a	0.19490972
16	0x3ebdda5d	0.3708066
17	0x3f0f95c8	0.56087923
18	0xbf5b48ef	-0.8565816
19	0x3eff8293	0.49904308
20	0x3f84edc0	1.0385056
21	0xbe8c71a3	-0.27430448
22	0xbe46e19f	-0.19422005
23	0x3f8f4505	1.1192938
24	0x3e50e02d	0.20398016
25	0x3f4e0fd9	0.8049293
26	0xbe9af755	-0.30266824
27	0x3f5bc855	0.8585256
28	0x3f320b11	0.69548136
29	0xbec317ec	-0.38104188
30	0x3e49df42	0.19714072
31	0x3f621b5c	0.88323
32	0x3f6083b1	0.87700945
33	0xbe91f139	-0.2850435
34	0x3f2b2690	0.66855717
35	0xbf72eb68	-0.9489045
36	0xbf733054	-0.9499562
37	0x3f79799e	0.974512
38	0xbd462b63	-0.04838122
39	0xbf1798ba	-0.5921742
40	0x3e3e03f4	0.18556195
41	0xbeac8ff8	-0.3370359
42	0xbea39c4c	-0.31955183
43	0x3db44870	0.08802879
44	0xbd3bff08	-0.045897514
45	0xbea54a90	-0.3228345
46	0x3c80c484	0.015718706
47	0x3e5de1d8	0.21668184
48	0xbf863059	-1.0483505
49	0xbee79a43	-0.4523488
50	0x3f4eebf5	0.8082879
51	0x3f2359d5	0.6380895
52	0x3f3f8204	0.74807763
53	0xbf47f5fd	-0.78109723
54	0xbe1ea31b	-0.15491907
55	0xbeb8ccf2	-0.3609386
56	0xbf77d158	-0.9680381
57	0xbe9ee39a	-0.3103302
58	0x3eb7f480	0.35928726
59	0x3f1da8da	0.6158577
60	0x3ec21f7b	0.37914643
61	0xbf0dbb72	-0.55364144
62	0x3e2e9a7c	0.17051119
63	0xbe71fbd5	-0.23631223

l2.bias f4 [8]
0	0x3f0e16a2	0.55503285
1	0xbe527415	-0.20552094
2	0x3f27d9e2	0.6556684
3	0x3f0ad32c	0.5422847
4	0x3ee3e2d2	0.44508988
5	0xbe414a65	-0.18876036
6	0x3eab6e11	0.33482412
7	0x3f011522	0.5042287

l3.weight f4 [3, 8]
0	0xbf89a887	-1.0754555
1	0x3c929b75	0.017896393
2	0x3e75c340	0.24000263
3	0x3ed52787	0.4163172
4	0xbf5edc72	-0.8705512
5	0x3e8269a3	0.2547122
6	0x3f7d9f5b	0.9907128
7	0x3f6195b8	0.8811908
8	0x3ef1cebb	0.47228035
9	0x3e92ea0a	0.28694183
10	0x3f4d61f4	0.8022759
11	0x3f2edc84	0.6830523
12	0xbfa159a8	-1.2605486
13	0xbde42d95	-0.111415066
14	0xbf2c1ab2	-0.67228234
15	0xbf6e9648	-0.9319806
16	0x3e8f914f	0.2804055
17	0x3e0b2973	0.1359003
18	0xbea62582	-0.3245049
19	0xbf39782e	-0.72449005
20	0x3f07f535	0.5310853
21	0x3e707af8	0.23484409
22	0xbf2ae1d5	-0.6675084
23	0xbeb4de71	-0.3532596

l3.bias f4 [3]
0	0xbe916ea6	-0.2840473
1	0xbe671687	-0.22567187
2	0xbcb55afb	-0.02213811
